…
[ Tue Aug 23 09:36:36 2022 ] val_loss: 4.770462295292764, val_accuracy: 0.8270833333333333
[ Tue Aug 23 09:40:14 2022 ] [139,   700] loss: 0.000 acc: 1.000
[ Tue Aug 23 09:41:05 2022 ] val_loss: 4.812232932148132, val_accuracy: 0.8295833333333333
[ Tue Aug 23 09:44:45 2022 ] [140,   700] loss: 0.000 acc: 1.000
[ Tue Aug 23 09:45:19 2022 ] val_loss: 4.8461329609286015, val_accuracy: 0.8304166666666667
[ Tue Aug 23 09:48:45 2022 ] [141,   700] loss: 0.000 acc: 1.000
[ Tue Aug 23 09:49:20 2022 ] val_loss: 4.908315305344132, val_accuracy: 0.83125
[ Tue Aug 23 09:52:56 2022 ] [142,   700] loss: 0.000 acc: 1.000
[ Fri Aug 26 16:42:29 2022 ] 
 Training TGCN_trainer

TGCN(
  (gtcn0): Conv2d(137, 256, kernel_size=(9, 1), stride=(1, 1), padding=(4, 0))
  (gtcn_layers): ModuleList(
    (0): Conv2d(256, 256, kernel_size=(9, 1), stride=(1, 1), padding=(4, 0))
    (1): Conv2d(256, 256, kernel_size=(9, 1), stride=(2, 1), padding=(4, 0))
    (2): Conv2d(256, 512, kernel_size=(9, 1), stride=(1, 1), padding=(4, 0))
    (3): Conv2d(512, 512, kernel_size=(9, 1), stride=(2, 1), padding=(4, 0))
    (4): Conv2d(512, 512, kernel_size=(9, 1), stride=(1, 1), padding=(4, 0))
    (5): Conv2d(512, 256, kernel_size=(9, 1), stride=(1, 1), padding=(4, 0))
  )
  (relu): ReLU()
  (dropout): Dropout(p=0.3, inplace=False)
  (fcl): ModuleList(
    (0): Linear(in_features=256, out_features=100, bias=True)
  )
  (fcn): Conv1d(256, 100, kernel_size=(1,), stride=(1,))
)
[ Fri Aug 26 16:43:19 2022 ] 
 Training TGCN_trainer

TGCN(
  (gtcn0): Conv2d(137, 256, kernel_size=(9, 1), stride=(1, 1), padding=(4, 0))
  (gtcn_layers): ModuleList(
    (0): Conv2d(256, 256, kernel_size=(9, 1), stride=(1, 1), padding=(4, 0))
    (1): Conv2d(256, 256, kernel_size=(9, 1), stride=(2, 1), padding=(4, 0))
    (2): Conv2d(256, 512, kernel_size=(9, 1), stride=(1, 1), padding=(4, 0))
    (3): Conv2d(512, 512, kernel_size=(9, 1), stride=(2, 1), padding=(4, 0))
    (4): Conv2d(512, 512, kernel_size=(9, 1), stride=(1, 1), padding=(4, 0))
    (5): Conv2d(512, 256, kernel_size=(9, 1), stride=(1, 1), padding=(4, 0))
  )
  (relu): ReLU()
  (dropout): Dropout(p=0.3, inplace=False)
  (fcl): ModuleList(
    (0): Linear(in_features=256, out_features=100, bias=True)
  )
  (fcn): Conv1d(256, 100, kernel_size=(1,), stride=(1,))
)
[ Fri Aug 26 16:45:19 2022 ] [1,    70] train_loss: 2.914 train_acc: 0.146
[ Fri Aug 26 16:46:09 2022 ] [1,    30] val_loss: 2.290 val_acc: 0.163
[ Fri Aug 26 16:46:31 2022 ] [2,    70] train_loss: 2.219 train_acc: 0.184
[ Fri Aug 26 16:46:35 2022 ] [2,    30] val_loss: 2.152 val_acc: 0.217
[ Fri Aug 26 16:46:56 2022 ] [3,    70] train_loss: 2.130 train_acc: 0.214
…
[ Fri Aug 26 17:05:24 2022 ] [46,    70] train_loss: 0.696 train_acc: 0.761
[ Fri Aug 26 17:05:28 2022 ] [46,    30] val_loss: 1.977 val_acc: 0.412
[ Fri Aug 26 17:05:49 2022 ] [47,    70] train_loss: 0.795 train_acc: 0.732
[ Fri Aug 26 17:05:53 2022 ] [47,    30] val_loss: 1.851 val_acc: 0.404
[ Fri Aug 26 17:06:16 2022 ] [48,    70] train_loss: 0.775 train_acc: 0.730
[ Fri Aug 26 17:06:20 2022 ] [48,    30] val_loss: 1.871 val_acc: 0.412
[ Fri Aug 26 17:06:42 2022 ] [49,    70] train_loss: 0.664 train_acc: 0.766
[ Fri Aug 26 17:06:46 2022 ] [49,    30] val_loss: 1.876 val_acc: 0.429
[ Fri Aug 26 17:07:27 2022 ] 
 Training TGCN_trainer

TGCN(
  (gtcn0): Conv2d(137, 256, kernel_size=(9, 1), stride=(1, 1), padding=(4, 0))
  (gtcn_layers): ModuleList(
    (0): Conv2d(256, 256, kernel_size=(9, 1), stride=(1, 1), padding=(4, 0))
    (1): Conv2d(256, 256, kernel_size=(9, 1), stride=(2, 1), padding=(4, 0))
    (2): Conv2d(256, 512, kernel_size=(9, 1), stride=(1, 1), padding=(4, 0))
    (3): Conv2d(512, 512, kernel_size=(9, 1), stride=(2, 1), padding=(4, 0))
    (4): Conv2d(512, 512, kernel_size=(9, 1), stride=(1, 1), padding=(4, 0))
    (5): Conv2d(512, 256, kernel_size=(9, 1), stride=(1, 1), padding=(4, 0))
  )
  (relu): ReLU()
  (dropout): Dropout(p=0.3, inplace=False)
  (fcl): ModuleList(
    (0): Linear(in_features=256, out_features=100, bias=True)
  )
  (fcn): Conv1d(256, 100, kernel_size=(1,), stride=(1,))
)
[ Fri Aug 26 18:08:59 2022 ] 
 Training TGCN_trainer

TGCN(
  (gtcn0): Conv2d(137, 256, kernel_size=(9, 1), stride=(1, 1), padding=(4, 0))
  (gtcn_layers): ModuleList(
    (0): Conv2d(256, 256, kernel_size=(9, 1), stride=(1, 1), padding=(4, 0))
    (1): Conv2d(256, 256, kernel_size=(9, 1), stride=(2, 1), padding=(4, 0))
    (2): Conv2d(256, 512, kernel_size=(9, 1), stride=(1, 1), padding=(4, 0))
    (3): Conv2d(512, 512, kernel_size=(9, 1), stride=(2, 1), padding=(4, 0))
    (4): Conv2d(512, 512, kernel_size=(9, 1), stride=(1, 1), padding=(4, 0))
    (5): Conv2d(512, 256, kernel_size=(9, 1), stride=(1, 1), padding=(4, 0))
  )
  (relu): ReLU()
  (dropout): Dropout(p=0.3, inplace=False)
  (fcl): ModuleList(
    (0): Linear(in_features=256, out_features=100, bias=True)
  )
  (fcn): Conv1d(256, 100, kernel_size=(1,), stride=(1,))
)
[ Fri Aug 26 18:38:04 2022 ] 
 Training TGCN_trainer

TGCN(
  (gtcn0): Conv2d(137, 256, kernel_size=(9, 1), stride=(1, 1), padding=(4, 0))
  (gtcn_layers): ModuleList(
    (0): Conv2d(256, 256, kernel_size=(9, 1), stride=(1, 1), padding=(4, 0))
    (1): Conv2d(256, 256, kernel_size=(9, 1), stride=(2, 1), padding=(4, 0))
    (2): Conv2d(256, 512, kernel_size=(9, 1), stride=(1, 1), padding=(4, 0))
    (3): Conv2d(512, 512, kernel_size=(9, 1), stride=(2, 1), padding=(4, 0))
    (4): Conv2d(512, 512, kernel_size=(9, 1), stride=(1, 1), padding=(4, 0))
    (5): Conv2d(512, 256, kernel_size=(9, 1), stride=(1, 1), padding=(4, 0))
  )
  (relu): ReLU()
  (dropout): Dropout(p=0.3, inplace=False)
  (fcl): ModuleList(
    (0): Linear(in_features=256, out_features=100, bias=True)
  )
  (fcn): Conv1d(256, 100, kernel_size=(1,), stride=(1,))
)
[ Fri Aug 26 18:40:11 2022 ] 
 Training TGCN_trainer

TGCN(
  (gtcn0): Conv2d(137, 256, kernel_size=(9, 1), stride=(1, 1), padding=(4, 0))
  (gtcn_layers): ModuleList(
    (0): Conv2d(256, 256, kernel_size=(9, 1), stride=(1, 1), padding=(4, 0))
    (1): Conv2d(256, 256, kernel_size=(9, 1), stride=(2, 1), padding=(4, 0))
    (2): Conv2d(256, 512, kernel_size=(9, 1), stride=(1, 1), padding=(4, 0))
    (3): Conv2d(512, 512, kernel_size=(9, 1), stride=(2, 1), padding=(4, 0))
    (4): Conv2d(512, 512, kernel_size=(9, 1), stride=(1, 1), padding=(4, 0))
    (5): Conv2d(512, 256, kernel_size=(9, 1), stride=(1, 1), padding=(4, 0))
  )
  (relu): ReLU()
  (dropout): Dropout(p=0.3, inplace=False)
  (fcl): ModuleList(
    (0): Linear(in_features=256, out_features=100, bias=True)
  )
  (fcn): Conv1d(256, 100, kernel_size=(1,), stride=(1,))
)
[ Fri Aug 26 18:56:45 2022 ] 
 Training TGCN_trainer

TGCN(
  (gtcn0): Conv2d(137, 256, kernel_size=(9, 1), stride=(1, 1), padding=(4, 0))
  (gtcn_layers): ModuleList(
    (0): Conv2d(256, 256, kernel_size=(9, 1), stride=(1, 1), padding=(4, 0))
    (1): Conv2d(256, 256, kernel_size=(9, 1), stride=(2, 1), padding=(4, 0))
    (2): Conv2d(256, 512, kernel_size=(9, 1), stride=(1, 1), padding=(4, 0))
    (3): Conv2d(512, 512, kernel_size=(9, 1), stride=(2, 1), padding=(4, 0))
    (4): Conv2d(512, 512, kernel_size=(9, 1), stride=(1, 1), padding=(4, 0))
    (5): Conv2d(512, 256, kernel_size=(9, 1), stride=(1, 1), padding=(4, 0))
  )
  (relu): ReLU()
  (dropout): Dropout(p=0.3, inplace=False)
  (fcl): ModuleList(
    (0): Linear(in_features=256, out_features=100, bias=True)
  )
  (fcn): Conv1d(256, 100, kernel_size=(1,), stride=(1,))
)
[ Fri Aug 26 18:56:46 2022 ] [1,     1] train_loss: 4.748 train_acc: 0.000
[ Fri Aug 26 18:56:46 2022 ] [1,     1] val_loss: 4.512 val_acc: 0.000
[ Fri Aug 26 18:56:46 2022 ] [2,     1] train_loss: 4.516 train_acc: 0.000
[ Fri Aug 26 18:56:46 2022 ] [2,     1] val_loss: 4.061 val_acc: 1.000
[ Fri Aug 26 18:56:46 2022 ] [3,     1] train_loss: 4.057 train_acc: 1.000
…
[ Fri Aug 26 18:56:55 2022 ] [97,     1] train_loss: 0.014 train_acc: 1.000
[ Fri Aug 26 18:56:55 2022 ] [97,     1] val_loss: 0.014 val_acc: 1.000
[ Fri Aug 26 18:56:55 2022 ] [98,     1] train_loss: 0.014 train_acc: 1.000
[ Fri Aug 26 18:56:55 2022 ] [98,     1] val_loss: 0.014 val_acc: 1.000
[ Fri Aug 26 18:56:55 2022 ] [99,     1] train_loss: 0.014 train_acc: 1.000
[ Fri Aug 26 18:56:55 2022 ] [99,     1] val_loss: 0.014 val_acc: 1.000
[ Fri Aug 26 18:56:55 2022 ] [100,     1] train_loss: 0.014 train_acc: 1.000
[ Fri Aug 26 18:56:55 2022 ] [100,     1] val_loss: 0.014 val_acc: 1.000
[ Sat Aug 27 00:32:58 2022 ] 
 Training TGCN_trainer

TGCN(
  (gtcn0): Conv2d(137, 256, kernel_size=(9, 1), stride=(1, 1), padding=(4, 0))
  (gtcn_layers): ModuleList(
    (0): Conv2d(256, 256, kernel_size=(9, 1), stride=(1, 1), padding=(4, 0))
    (1): Conv2d(256, 256, kernel_size=(9, 1), stride=(2, 1), padding=(4, 0))
    (2): Conv2d(256, 512, kernel_size=(9, 1), stride=(1, 1), padding=(4, 0))
    (3): Conv2d(512, 512, kernel_size=(9, 1), stride=(2, 1), padding=(4, 0))
    (4): Conv2d(512, 512, kernel_size=(9, 1), stride=(1, 1), padding=(4, 0))
    (5): Conv2d(512, 256, kernel_size=(9, 1), stride=(1, 1), padding=(4, 0))
  )
  (relu): ReLU()
  (dropout): Dropout(p=0.3, inplace=False)
  (fcl): ModuleList(
    (0): Linear(in_features=256, out_features=100, bias=True)
  )
  (fcn): Conv1d(256, 100, kernel_size=(1,), stride=(1,))
)
[ Sat Aug 27 00:42:38 2022 ] [1,  1200] train_loss: 4.617 train_acc: 0.019
[ Sat Aug 27 00:42:39 2022 ] [1,     1] val_loss: 4.175 val_acc: 0.000
[ Sat Aug 27 00:46:17 2022 ] [2,  1200] train_loss: 4.434 train_acc: 0.020
[ Sat Aug 27 00:46:17 2022 ] [2,     1] val_loss: 4.223 val_acc: 0.000
[ Sat Aug 27 00:49:51 2022 ] [3,  1200] train_loss: 4.377 train_acc: 0.023
…
[ Sat Aug 27 05:11:33 2022 ] [97,  1200] train_loss: 0.084 train_acc: 0.983
[ Sat Aug 27 05:11:33 2022 ] [97,     1] val_loss: 10.829 val_acc: 0.000
[ Sat Aug 27 05:14:16 2022 ] [98,  1200] train_loss: 0.100 train_acc: 0.978
[ Sat Aug 27 05:14:16 2022 ] [98,     1] val_loss: 11.282 val_acc: 0.000
[ Sat Aug 27 05:17:00 2022 ] [99,  1200] train_loss: 0.076 train_acc: 0.988
[ Sat Aug 27 05:17:00 2022 ] [99,     1] val_loss: 10.367 val_acc: 0.000
[ Sat Aug 27 05:19:43 2022 ] [100,  1200] train_loss: 0.084 train_acc: 0.985
[ Sat Aug 27 05:19:43 2022 ] [100,     1] val_loss: 10.893 val_acc: 0.000
[ Sat Aug 27 14:45:07 2022 ] 
 Training TGCN_trainer

TGCN(
  (gtcn0): Conv2d(137, 128, kernel_size=(9, 1), stride=(1, 1), padding=(4, 0))
  (gtcn_layers): ModuleList(
    (0): Conv2d(128, 128, kernel_size=(9, 1), stride=(1, 1), padding=(4, 0))
    (1): Conv2d(128, 128, kernel_size=(9, 1), stride=(2, 1), padding=(4, 0))
    (2): Conv2d(128, 256, kernel_size=(9, 1), stride=(1, 1), padding=(4, 0))
    (3): Conv2d(256, 256, kernel_size=(9, 1), stride=(2, 1), padding=(4, 0))
    (4): Conv2d(256, 256, kernel_size=(9, 1), stride=(1, 1), padding=(4, 0))
    (5): Conv2d(256, 128, kernel_size=(9, 1), stride=(1, 1), padding=(4, 0))
  )
  (relu): ReLU()
  (dropout): Dropout(p=0.3, inplace=False)
  (fcl): ModuleList(
    (0): Linear(in_features=128, out_features=100, bias=True)
  )
  (fcn): Conv1d(128, 100, kernel_size=(1,), stride=(1,))
)
[ Sat Aug 27 16:05:39 2022 ] 
 Training TGCN_v2_trainer

TGCN_v2(
  (gtcn0): Conv2d(3, 128, kernel_size=(9, 1), stride=(1, 1), padding=(4, 0))
  (gtcn_layers): ModuleList(
    (0): Conv2d(128, 128, kernel_size=(9, 1), stride=(1, 1), padding=(4, 0))
    (1): Conv2d(128, 128, kernel_size=(9, 1), stride=(2, 1), padding=(4, 0))
    (2): Conv2d(128, 256, kernel_size=(9, 1), stride=(1, 1), padding=(4, 0))
    (3): Conv2d(256, 256, kernel_size=(9, 1), stride=(2, 1), padding=(4, 0))
    (4): Conv2d(256, 256, kernel_size=(9, 1), stride=(1, 1), padding=(4, 0))
    (5): Conv2d(256, 128, kernel_size=(9, 1), stride=(1, 1), padding=(4, 0))
  )
  (relu): ReLU()
  (dropout): Dropout(p=0.3, inplace=False)
  (fcl): ModuleList(
    (0): Linear(in_features=128, out_features=100, bias=True)
  )
  (fcn): Conv1d(128, 100, kernel_size=(1,), stride=(1,))
  (data_bn): BatchNorm1d(411, eps=1e-05, momentum=0.1, affine=True, track_running_stats=True)
)
[ Sat Aug 27 16:25:46 2022 ] 
 Training TGCN_v2_trainer

TGCN_v2(
  (gtcn0): Conv2d(3, 128, kernel_size=(9, 1), stride=(1, 1), padding=(4, 0))
  (gtcn_layers): ModuleList(
    (0): Conv2d(128, 128, kernel_size=(9, 1), stride=(1, 1), padding=(4, 0))
    (1): Conv2d(128, 128, kernel_size=(9, 1), stride=(2, 1), padding=(4, 0))
    (2): Conv2d(128, 256, kernel_size=(9, 1), stride=(1, 1), padding=(4, 0))
    (3): Conv2d(256, 256, kernel_size=(9, 1), stride=(2, 1), padding=(4, 0))
    (4): Conv2d(256, 256, kernel_size=(9, 1), stride=(1, 1), padding=(4, 0))
    (5): Conv2d(256, 128, kernel_size=(9, 1), stride=(1, 1), padding=(4, 0))
  )
  (relu): ReLU()
  (dropout): Dropout(p=0.3, inplace=False)
  (fcl): ModuleList(
    (0): Linear(in_features=128, out_features=100, bias=True)
  )
  (fcn): Conv1d(128, 100, kernel_size=(1,), stride=(1,))
  (data_bn): BatchNorm1d(411, eps=1e-05, momentum=0.1, affine=True, track_running_stats=True)
)
[ Sat Aug 27 16:32:41 2022 ] 
 Training TGCN_v2_trainer

TGCN_v2(
  (gtcn0): Conv2d(3, 128, kernel_size=(9, 1), stride=(1, 1), padding=(4, 0))
  (gtcn_layers): ModuleList(
    (0): Conv2d(128, 128, kernel_size=(9, 1), stride=(1, 1), padding=(4, 0))
    (1): Conv2d(128, 128, kernel_size=(9, 1), stride=(2, 1), padding=(4, 0))
    (2): Conv2d(128, 256, kernel_size=(9, 1), stride=(1, 1), padding=(4, 0))
    (3): Conv2d(256, 256, kernel_size=(9, 1), stride=(2, 1), padding=(4, 0))
    (4): Conv2d(256, 256, kernel_size=(9, 1), stride=(1, 1), padding=(4, 0))
    (5): Conv2d(256, 128, kernel_size=(9, 1), stride=(1, 1), padding=(4, 0))
  )
  (relu): ReLU()
  (dropout): Dropout(p=0.3, inplace=False)
  (fcl): ModuleList(
    (0): Linear(in_features=128, out_features=100, bias=True)
  )
  (fcn): Conv1d(128, 100, kernel_size=(1,), stride=(1,))
  (data_bn): BatchNorm1d(411, eps=1e-05, momentum=0.1, affine=True, track_running_stats=True)
)
[ Sat Aug 27 16:34:12 2022 ] 
 Training TGCN_v2_trainer

TGCN_v2(
  (gtcn0): Conv2d(3, 128, kernel_size=(9, 1), stride=(1, 1), padding=(4, 0))
  (gtcn_layers): ModuleList(
    (0): Conv2d(128, 128, kernel_size=(9, 1), stride=(1, 1), padding=(4, 0))
    (1): Conv2d(128, 128, kernel_size=(9, 1), stride=(2, 1), padding=(4, 0))
    (2): Conv2d(128, 256, kernel_size=(9, 1), stride=(1, 1), padding=(4, 0))
    (3): Conv2d(256, 256, kernel_size=(9, 1), stride=(2, 1), padding=(4, 0))
    (4): Conv2d(256, 256, kernel_size=(9, 1), stride=(1, 1), padding=(4, 0))
    (5): Conv2d(256, 128, kernel_size=(9, 1), stride=(1, 1), padding=(4, 0))
  )
  (relu): ReLU()
  (dropout): Dropout(p=0.3, inplace=False)
  (fcl): ModuleList(
    (0): Linear(in_features=128, out_features=100, bias=True)
  )
  (fcn): Conv1d(128, 100, kernel_size=(1,), stride=(1,))
  (data_bn): BatchNorm1d(411, eps=1e-05, momentum=0.1, affine=True, track_running_stats=True)
)
[ Sat Aug 27 16:36:39 2022 ] [1,   150] train_loss: 688310557.800 train_acc: 0.013
[ Sat Aug 27 16:36:39 2022 ] [1,     1] val_loss: 2012.743 val_acc: 0.000
[ Sat Aug 27 16:37:33 2022 ] 
 Training TGCN_v2_trainer

TGCN_v2(
  (gtcn0): Conv2d(3, 128, kernel_size=(9, 1), stride=(1, 1), padding=(4, 0))
  (gtcn_layers): ModuleList(
    (0): Conv2d(128, 128, kernel_size=(9, 1), stride=(1, 1), padding=(4, 0))
    (1): Conv2d(128, 128, kernel_size=(9, 1), stride=(2, 1), padding=(4, 0))
    (2): Conv2d(128, 256, kernel_size=(9, 1), stride=(1, 1), padding=(4, 0))
    (3): Conv2d(256, 256, kernel_size=(9, 1), stride=(2, 1), padding=(4, 0))
    (4): Conv2d(256, 256, kernel_size=(9, 1), stride=(1, 1), padding=(4, 0))
    (5): Conv2d(256, 128, kernel_size=(9, 1), stride=(1, 1), padding=(4, 0))
  )
  (relu): ReLU()
  (dropout): Dropout(p=0.3, inplace=False)
  (fcl): ModuleList(
    (0): Linear(in_features=128, out_features=100, bias=True)
  )
  (fcn): Conv1d(128, 100, kernel_size=(1,), stride=(1,))
  (data_bn): BatchNorm1d(411, eps=1e-05, momentum=0.1, affine=True, track_running_stats=True)
)
[ Sat Aug 27 16:39:45 2022 ] [1,   300] train_loss: 173111578.044 train_acc: 0.008
[ Sat Aug 27 16:39:45 2022 ] [1,     1] val_loss: 4.706 val_acc: 0.000
[ Sat Aug 27 16:41:56 2022 ] [2,   300] train_loss: 7.717 train_acc: 0.007
[ Sat Aug 27 16:41:56 2022 ] [2,     1] val_loss: 4.713 val_acc: 0.000
[ Sat Aug 27 16:44:07 2022 ] [3,   300] train_loss: 4.602 train_acc: 0.012
…
[ Sat Aug 27 18:22:17 2022 ] [48,   300] train_loss: 4.512 train_acc: 0.021
[ Sat Aug 27 18:22:17 2022 ] [48,     1] val_loss: 8.139 val_acc: 0.000
[ Sat Aug 27 18:24:28 2022 ] [49,   300] train_loss: 4.510 train_acc: 0.021
[ Sat Aug 27 18:24:28 2022 ] [49,     1] val_loss: 8.270 val_acc: 0.000
[ Sat Aug 27 18:26:39 2022 ] [50,   300] train_loss: 4.508 train_acc: 0.022
[ Sat Aug 27 18:26:39 2022 ] [50,     1] val_loss: 8.392 val_acc: 0.000
[ Sat Aug 27 18:28:50 2022 ] [51,   300] train_loss: 4.506 train_acc: 0.022
[ Sat Aug 27 18:28:50 2022 ] [51,     1] val_loss: 8.509 val_acc: 0.000
[ Sat Aug 27 18:35:39 2022 ] 
 Training TGCN_v2_trainer

TGCN_v2(
  (gtcn0): Conv2d(3, 128, kernel_size=(9, 1), stride=(1, 1), padding=(4, 0))
  (gtcn_layers): ModuleList(
    (0): Conv2d(128, 128, kernel_size=(9, 1), stride=(1, 1), padding=(4, 0))
    (1): Conv2d(128, 128, kernel_size=(9, 1), stride=(2, 1), padding=(4, 0))
    (2): Conv2d(128, 256, kernel_size=(9, 1), stride=(1, 1), padding=(4, 0))
    (3): Conv2d(256, 256, kernel_size=(9, 1), stride=(2, 1), padding=(4, 0))
    (4): Conv2d(256, 256, kernel_size=(9, 1), stride=(1, 1), padding=(4, 0))
    (5): Conv2d(256, 128, kernel_size=(9, 1), stride=(1, 1), padding=(4, 0))
  )
  (relu): ReLU()
  (dropout): Dropout(p=0.3, inplace=False)
  (fcl): ModuleList(
    (0): Linear(in_features=128, out_features=100, bias=True)
  )
  (fcn): Conv1d(128, 100, kernel_size=(1,), stride=(1,))
  (data_bn): BatchNorm1d(411, eps=1e-05, momentum=0.1, affine=True, track_running_stats=True)
)
[ Sat Aug 27 18:37:52 2022 ] [1,   300] train_loss: 44997552.029 train_acc: 0.009
[ Sat Aug 27 18:37:52 2022 ] [1,     1] val_loss: 4.671 val_acc: 0.000
[ Sun Aug 28 01:27:24 2022 ] 
 Training TGCN_v2_trainer

TGCN_v2(
  (gtcn0): Conv2d(3, 128, kernel_size=(9, 1), stride=(1, 1), padding=(4, 0))
  (gtcn_layers): ModuleList(
    (0): Conv2d(128, 128, kernel_size=(9, 1), stride=(1, 1), padding=(4, 0))
    (1): Conv2d(128, 128, kernel_size=(9, 1), stride=(2, 1), padding=(4, 0))
    (2): Conv2d(128, 256, kernel_size=(9, 1), stride=(1, 1), padding=(4, 0))
    (3): Conv2d(256, 256, kernel_size=(9, 1), stride=(2, 1), padding=(4, 0))
    (4): Conv2d(256, 256, kernel_size=(9, 1), stride=(1, 1), padding=(4, 0))
    (5): Conv2d(256, 128, kernel_size=(9, 1), stride=(1, 1), padding=(4, 0))
  )
  (relu): ReLU()
  (dropout): Dropout(p=0.3, inplace=False)
  (fcl): ModuleList(
    (0): Linear(in_features=128, out_features=100, bias=True)
  )
  (fcn): Conv1d(128, 100, kernel_size=(1,), stride=(1,))
  (data_bn): BatchNorm1d(411, eps=1e-05, momentum=0.1, affine=True, track_running_stats=True)
)
[ Sun Aug 28 01:29:01 2022 ] 
 Training TGCN_v2_trainer

TGCN_v2(
  (gtcn0): Conv2d(3, 128, kernel_size=(9, 1), stride=(1, 1), padding=(4, 0))
  (gtcn_layers): ModuleList(
    (0): Conv2d(128, 128, kernel_size=(9, 1), stride=(1, 1), padding=(4, 0))
    (1): Conv2d(128, 128, kernel_size=(9, 1), stride=(2, 1), padding=(4, 0))
    (2): Conv2d(128, 256, kernel_size=(9, 1), stride=(1, 1), padding=(4, 0))
    (3): Conv2d(256, 256, kernel_size=(9, 1), stride=(2, 1), padding=(4, 0))
    (4): Conv2d(256, 256, kernel_size=(9, 1), stride=(1, 1), padding=(4, 0))
    (5): Conv2d(256, 128, kernel_size=(9, 1), stride=(1, 1), padding=(4, 0))
  )
  (relu): ReLU()
  (dropout): Dropout(p=0.3, inplace=False)
  (fcl): ModuleList(
    (0): Linear(in_features=128, out_features=100, bias=True)
  )
  (fcn): Conv1d(128, 100, kernel_size=(1,), stride=(1,))
  (data_bn): BatchNorm1d(411, eps=1e-05, momentum=0.1, affine=True, track_running_stats=True)
)
[ Sun Aug 28 01:31:15 2022 ] [1,   300] train_loss: 83442575.761 train_acc: 0.012
[ Sun Aug 28 01:31:15 2022 ] [1,     1] val_loss: 4.566 val_acc: 0.000
[ Sun Aug 28 01:33:28 2022 ] [2,   300] train_loss: 4.604 train_acc: 0.015
[ Sun Aug 28 01:33:28 2022 ] [2,     1] val_loss: 4.589 val_acc: 0.000
[ Sun Aug 28 01:35:40 2022 ] [3,   300] train_loss: 4.601 train_acc: 0.015
…
[ Sun Aug 28 01:37:53 2022 ] [4,   300] train_loss: 4.598 train_acc: 0.015
[ Sun Aug 28 01:37:53 2022 ] [4,     1] val_loss: 4.638 val_acc: 0.000
[ Sun Aug 28 01:40:05 2022 ] [5,   300] train_loss: 4.597 train_acc: 0.015
[ Sun Aug 28 01:40:06 2022 ] [5,     1] val_loss: 4.653 val_acc: 0.000
[ Sun Aug 28 01:42:18 2022 ] [6,   300] train_loss: 4.596 train_acc: 0.015
[ Sun Aug 28 01:42:18 2022 ] [6,     1] val_loss: 4.662 val_acc: 0.000
[ Sun Aug 28 01:44:31 2022 ] [7,   300] train_loss: 4.595 train_acc: 0.015
[ Sun Aug 28 01:44:31 2022 ] [7,     1] val_loss: 4.666 val_acc: 0.000
[ Sun Aug 28 01:46:55 2022 ] 
 Training TGCN_trainer

TGCN(
  (gtcn0): Conv2d(137, 128, kernel_size=(9, 1), stride=(1, 1), padding=(4, 0))
  (gtcn_layers): ModuleList(
    (0): Conv2d(128, 128, kernel_size=(9, 1), stride=(1, 1), padding=(4, 0))
    (1): Conv2d(128, 128, kernel_size=(9, 1), stride=(2, 1), padding=(4, 0))
    (2): Conv2d(128, 256, kernel_size=(9, 1), stride=(1, 1), padding=(4, 0))
    (3): Conv2d(256, 256, kernel_size=(9, 1), stride=(2, 1), padding=(4, 0))
    (4): Conv2d(256, 256, kernel_size=(9, 1), stride=(1, 1), padding=(4, 0))
    (5): Conv2d(256, 128, kernel_size=(9, 1), stride=(1, 1), padding=(4, 0))
  )
  (relu): ReLU()
  (dropout): Dropout(p=0.3, inplace=False)
  (fcl): ModuleList(
    (0): Linear(in_features=128, out_features=100, bias=True)
  )
  (fcn): Conv1d(128, 100, kernel_size=(1,), stride=(1,))
)
[ Sun Aug 28 01:56:21 2022 ] [1,  1200] train_loss: 4.603 train_acc: 0.024
[ Sun Aug 28 01:56:21 2022 ] [1,     1] val_loss: 4.474 val_acc: 0.000
[ Sun Aug 28 01:59:16 2022 ] [2,  1200] train_loss: 4.428 train_acc: 0.022
[ Sun Aug 28 01:59:16 2022 ] [2,     1] val_loss: 4.500 val_acc: 0.000
[ Sun Aug 28 02:02:09 2022 ] [3,  1200] train_loss: 4.351 train_acc: 0.029
…
[ Sun Aug 28 02:49:11 2022 ] [8,  1200] train_loss: 3.805 train_acc: 0.079
[ Sun Aug 28 02:49:11 2022 ] [8,     1] val_loss: 5.695 val_acc: 0.000
[ Sun Aug 28 02:51:26 2022 ] [9,  1200] train_loss: 3.639 train_acc: 0.097
[ Sun Aug 28 02:51:26 2022 ] [9,     1] val_loss: 5.595 val_acc: 0.000
[ Sun Aug 28 02:53:34 2022 ] [10,  1200] train_loss: 3.501 train_acc: 0.112
[ Sun Aug 28 02:53:34 2022 ] [10,     1] val_loss: 5.840 val_acc: 0.000
[ Sun Aug 28 02:55:41 2022 ] [11,  1200] train_loss: 3.382 train_acc: 0.124
[ Sun Aug 28 02:55:41 2022 ] [11,     1] val_loss: 6.075 val_acc: 0.000
[ Sun Aug 28 16:06:15 2022 ] 
 Training TGCN_trainer_add_relu

TGCN(
  (gtcn0): Conv2d(137, 128, kernel_size=(9, 1), stride=(1, 1), padding=(4, 0))
  (gtcn_layers): ModuleList(
    (0): Conv2d(128, 128, kernel_size=(9, 1), stride=(1, 1), padding=(4, 0))
    (1): Conv2d(128, 128, kernel_size=(9, 1), stride=(2, 1), padding=(4, 0))
    (2): Conv2d(128, 256, kernel_size=(9, 1), stride=(1, 1), padding=(4, 0))
    (3): Conv2d(256, 256, kernel_size=(9, 1), stride=(2, 1), padding=(4, 0))
    (4): Conv2d(256, 256, kernel_size=(9, 1), stride=(1, 1), padding=(4, 0))
    (5): Conv2d(256, 128, kernel_size=(9, 1), stride=(1, 1), padding=(4, 0))
  )
  (relu): ReLU()
  (dropout): Dropout(p=0.3, inplace=False)
  (fcl): ModuleList(
    (0): Linear(in_features=128, out_features=100, bias=True)
  )
  (fcn): Conv1d(128, 100, kernel_size=(1,), stride=(1,))
)
[ Sun Aug 28 17:00:07 2022 ] 
 Training TGCN_trainer_add_relu

TGCN(
  (gtcn0): Conv2d(137, 128, kernel_size=(9, 1), stride=(1, 1), padding=(4, 0))
  (gtcn_layers): ModuleList(
    (0): Conv2d(128, 128, kernel_size=(9, 1), stride=(1, 1), padding=(4, 0))
    (1): Conv2d(128, 128, kernel_size=(9, 1), stride=(2, 1), padding=(4, 0))
    (2): Conv2d(128, 256, kernel_size=(9, 1), stride=(1, 1), padding=(4, 0))
    (3): Conv2d(256, 256, kernel_size=(9, 1), stride=(2, 1), padding=(4, 0))
    (4): Conv2d(256, 256, kernel_size=(9, 1), stride=(1, 1), padding=(4, 0))
    (5): Conv2d(256, 128, kernel_size=(9, 1), stride=(1, 1), padding=(4, 0))
  )
  (relu): ReLU()
  (dropout): Dropout(p=0.3, inplace=False)
  (fcl): ModuleList(
    (0): Linear(in_features=128, out_features=100, bias=True)
  )
  (fcn): Conv1d(128, 100, kernel_size=(1,), stride=(1,))
)
[ Sun Aug 28 17:43:38 2022 ] 
 Training TGCN_trainer_add_relu

TGCN(
  (gtcn0): Conv2d(137, 128, kernel_size=(9, 1), stride=(1, 1), padding=(4, 0))
  (gtcn_layers): ModuleList(
    (0): Conv2d(128, 128, kernel_size=(9, 1), stride=(1, 1), padding=(4, 0))
    (1): Conv2d(128, 128, kernel_size=(9, 1), stride=(2, 1), padding=(4, 0))
    (2): Conv2d(128, 256, kernel_size=(9, 1), stride=(1, 1), padding=(4, 0))
    (3): Conv2d(256, 256, kernel_size=(9, 1), stride=(2, 1), padding=(4, 0))
    (4): Conv2d(256, 256, kernel_size=(9, 1), stride=(1, 1), padding=(4, 0))
    (5): Conv2d(256, 128, kernel_size=(9, 1), stride=(1, 1), padding=(4, 0))
  )
  (relu): ReLU()
  (dropout): Dropout(p=0.3, inplace=False)
  (fcl): ModuleList(
    (0): Linear(in_features=128, out_features=100, bias=True)
  )
  (fcn): Conv1d(128, 100, kernel_size=(1,), stride=(1,))
)
[ Sun Aug 28 17:44:15 2022 ] 
 Training TGCN_trainer_add_relu

TGCN(
  (gtcn0): Conv2d(137, 128, kernel_size=(9, 1), stride=(1, 1), padding=(4, 0))
  (gtcn_layers): ModuleList(
    (0): Conv2d(128, 128, kernel_size=(9, 1), stride=(1, 1), padding=(4, 0))
    (1): Conv2d(128, 128, kernel_size=(9, 1), stride=(2, 1), padding=(4, 0))
    (2): Conv2d(128, 256, kernel_size=(9, 1), stride=(1, 1), padding=(4, 0))
    (3): Conv2d(256, 256, kernel_size=(9, 1), stride=(2, 1), padding=(4, 0))
    (4): Conv2d(256, 256, kernel_size=(9, 1), stride=(1, 1), padding=(4, 0))
    (5): Conv2d(256, 128, kernel_size=(9, 1), stride=(1, 1), padding=(4, 0))
  )
  (relu): ReLU()
  (dropout): Dropout(p=0.3, inplace=False)
  (fcl): ModuleList(
    (0): Linear(in_features=128, out_features=100, bias=True)
  )
  (fcn): Conv1d(128, 100, kernel_size=(1,), stride=(1,))
)
[ Sun Aug 28 20:00:17 2022 ] [1,  2800] loss: 4.631 acc: 0.014
[ Sun Aug 28 20:09:36 2022 ] val_loss: 4.6785535796483355, val_accuracy: 0.011666666666666667
[ Sun Aug 28 20:25:30 2022 ] [2,  2800] loss: 4.548 acc: 0.020
[ Sun Aug 28 20:32:13 2022 ] val_loss: 4.612006718913714, val_accuracy: 0.01125
[ Sun Aug 28 20:48:03 2022 ] [3,  2800] loss: 4.428 acc: 0.030
…
